…
&lt;/span>&lt;/span>&lt;span class="line">&lt;span class="cl">
&lt;/span>&lt;/span>&lt;span class="line">&lt;span class="cl">&lt;span class="c1"># Print the model summary&lt;/span>
&lt;/span>&lt;/span>&lt;span class="line">&lt;span class="cl">&lt;span class="n">model&lt;/span>&lt;span class="o">.&lt;/span>&lt;span class="n">summary&lt;/span>&lt;span class="p">()&lt;/span>
&lt;/span>&lt;/span>&lt;/code>&lt;/pre>&lt;/div>&lt;pre>&lt;code>Model: &amp;quot;sequential&amp;quot;
_________________________________________________________________
Layer (type) Output Shape Param #
=================================================================
reshape (Reshape) (None, 128, 128, 64, 1) 0
conv3d (Conv3D) (None, 126, 126, 62, 64) 1792
max_pooling3d (MaxPooling3D (None, 63, 63, 31, 64) 0
)
batch_normalization (BatchN (None, 63, 63, 31, 64) 256
ormalization)
conv3d_1 (Conv3D) (None, 61, 61, 29, 64) 110656
max_pooling3d_1 (MaxPooling (None, 30, 30, 14, 64) 0
3D)
batch_normalization_1 (Batc (None, 30, 30, 14, 64) 256
hNormalization)
conv3d_2 (Conv3D) (None, 28, 28, 12, 128) 221312
max_pooling3d_2 (MaxPooling (None, 14, 14, 6, 128) 0
3D)
batch_normalization_2 (Batc (None, 14, 14, 6, 128) 512
hNormalization)
conv3d_3 (Conv3D) (None, 12, 12, 4, 256) 884992
max_pooling3d_3 (MaxPooling (None, 6, 6, 2, 256) 0
3D)
batch_normalization_3 (Batc (None, 6, 6, 2, 256) 1024
hNormalization)
global_average_pooling3d (G (None, 256) 0
lobalAveragePooling3D)
dense (Dense) (None, 512) 131584
dropout (Dropout) (None, 512) 0
dense_1 (Dense) (None, 1) 513
=================================================================
Total params: 1,352,897
Trainable params: 1,351,873
Non-trainable params: 1,024
_________________________________________________________________
&lt;/code>&lt;/pre>
&lt;h2 id="model-training">Model training&lt;/h2>
&lt;p>The proposed model will be trained by default for 150 epochs in 4 different conditions:&lt;/p>
&lt;ul>
&lt;li>&lt;strong>Absent augmentation&lt;/strong>: all augmentation layers disabled&lt;/li>
…
